…
   "metadata": {
    "colab": {
     "base_uri": "https://localhost:8080/",
     "height": 358
    },
    "colab_type": "code",
    "id": "5Jb6rBwavZK2",
    "outputId": "662e43bf-e743-4934-8f78-efc2659506a4"
   },
   "outputs": [
    {
     "name": "stdout",
     "output_type": "stream",
     "text": [
      "Model: \"sequential_24\"\n",
      "_________________________________________________________________\n",
      "Layer (type)                 Output Shape              Param #   \n",
      "=================================================================\n",
      "dense_93 (Dense)             (None, 20)                620       \n",
      "_________________________________________________________________\n",
      "dropout_70 (Dropout)         (None, 20)                0         \n",
      "_________________________________________________________________\n",
      "dense_94 (Dense)             (None, 20)                420       \n",
      "_________________________________________________________________\n",
      "dropout_71 (Dropout)         (None, 20)                0         \n",
      "_________________________________________________________________\n",
      "dense_95 (Dense)             (None, 20)                420       \n",
      "_________________________________________________________________\n",
      "dropout_72 (Dropout)         (None, 20)                0         \n",
      "_________________________________________________________________\n",
      "dense_96 (Dense)             (None, 1)                 21        \n",
      "=================================================================\n",
      "Total params: 1,481\n",
      "Trainable params: 1,481\n",
      "Non-trainable params: 0\n",
      "_________________________________________________________________\n"
     ]
    }
   ],
   "source": [
    "#Building Our Model\n",
    "# Initialising the ANN\n",
    "classifier = Sequential()\n",
    "\n",
…
